True
hyperparameters:  {'batch_size': 128, 'optimizer': 'SGD', 'learning_rate': 0.05, 'epochs': 300, 'weight_decay': 0.001, 'lr_decay': 0.97, 'model': 'AllCNN', 'aug': True, 'deficit_start': 0, 'deficit_end': 60, 'deficit': 'subsample', 'num_classes': 10, 'project': 'Cifer100-'}
Files already downloaded and verified
Files already downloaded and verified
Files already downloaded and verified
Files already downloaded and verified
AllCNN(
  (conv1): Sequential(
    (0): Conv2d(3, 96, kernel_size=(3, 3), stride=(1, 1), padding=(1, 1), bias=False)
    (1): BatchNorm2d(96, eps=1e-05, momentum=0.1, affine=True, track_running_stats=True)
    (2): ReLU(inplace=True)
    (3): Conv2d(96, 96, kernel_size=(3, 3), stride=(1, 1), padding=(1, 1), bias=False)
    (4): BatchNorm2d(96, eps=1e-05, momentum=0.1, affine=True, track_running_stats=True)
    (5): ReLU(inplace=True)
    (6): Conv2d(96, 192, kernel_size=(3, 3), stride=(2, 2), padding=(1, 1), bias=False)
    (7): BatchNorm2d(192, eps=1e-05, momentum=0.1, affine=True, track_running_stats=True)
    (8): ReLU(inplace=True)
  )
  (conv2): Sequential(
    (0): Conv2d(192, 192, kernel_size=(3, 3), stride=(1, 1), padding=(1, 1), bias=False)
    (1): BatchNorm2d(192, eps=1e-05, momentum=0.1, affine=True, track_running_stats=True)
    (2): ReLU(inplace=True)
    (3): Conv2d(192, 192, kernel_size=(3, 3), stride=(1, 1), padding=(1, 1), bias=False)
    (4): BatchNorm2d(192, eps=1e-05, momentum=0.1, affine=True, track_running_stats=True)
    (5): ReLU(inplace=True)
    (6): Conv2d(192, 192, kernel_size=(3, 3), stride=(2, 2), padding=(1, 1), bias=False)
    (7): BatchNorm2d(192, eps=1e-05, momentum=0.1, affine=True, track_running_stats=True)
    (8): ReLU(inplace=True)
  )
  (conv3): Sequential(
    (0): Conv2d(192, 192, kernel_size=(3, 3), stride=(1, 1), padding=(1, 1), bias=False)
    (1): BatchNorm2d(192, eps=1e-05, momentum=0.1, affine=True, track_running_stats=True)
    (2): ReLU(inplace=True)
    (3): Conv2d(192, 192, kernel_size=(1, 1), stride=(1, 1), bias=False)
    (4): BatchNorm2d(192, eps=1e-05, momentum=0.1, affine=True, track_running_stats=True)
    (5): ReLU(inplace=True)
  )
  (last): Sequential(
    (0): Conv2d(192, 10, kernel_size=(1, 1), stride=(1, 1), bias=False)
    (1): AdaptiveAvgPool2d(output_size=1)
  )
)
{'test_accuracy': 0.0021,
 'test_loss': 185.14241123199463,
 'train_accuracy': 0.07428,
 'train_loss': 840.4205372333527}
{'test_accuracy': 0.0008,
 'test_loss': 187.6449375152588,
 'train_accuracy': 0.11714,
 'train_loss': 802.8738726377487}
{'test_accuracy': 0.0022,
 'test_loss': 184.97101044654846,
…
